Places365_model_for_recognizing_VN_landmark/predict/model_best_resnet18.pt (torch_old, 695920 bytes, 22 tensors)

layer1.weight f4 [256, 512]
0	0xbd8703e1	-0.06592537
1	0xbde9945d	-0.11405251
2	0xbd2f4aab	-0.04279582
3	0xbccff100	-0.025383472
4	0x3d426a8c	0.047464892
5	0x3e06bded	0.13158388
6	0x3c8bc004	0.017059334
7	0x3d9be17b	0.07611366
8	0xbcabff82	-0.020995859
9	0x3d2d5a9a	0.042322733
10	0x3d88f345	0.06687025
11	0x3d31e613	0.043432306
12	0xbdb8f422	-0.0903094
13	0x3db057cc	0.08610496
14	0x3d044233	0.032289695
15	0x3b0300f2	0.0019989577
16	0x3cbecacb	0.023290059
17	0x3d864544	0.0655618
18	0x3d1618a7	0.036644604
19	0x3bd66347	0.0065425965
20	0xbe37d84b	-0.17953603
21	0x3e07229a	0.13196793
22	0x3dc3733b	0.09543463
23	0x3d5c8a5c	0.053842887
24	0xbc958fbc	-0.018257014
25	0xbd749571	-0.05971283
26	0x3d0fc5dd	0.035100807
27	0x3ce8e98e	0.02843168
28	0xbd414c8e	-0.04719215
29	0x3d2fd1ad	0.04292457
30	0xbc4a8dbd	-0.012362895
31	0xbdab81f0	-0.08374393
32	0xbd2dbf90	-0.042419016
33	0x3cfc68f6	0.030811768
34	0xbd964441	-0.07337237
35	0xbd8aa197	-0.06769102
36	0xbe00a865	-0.12564237
37	0x3ac8fad1	0.0015333538
38	0xbd872142	-0.0659814
39	0xbdb712d3	-0.08939137
40	0x3d7c8d5f	0.06165826
41	0x3d352049	0.044220243
42	0xbdf7f562	-0.1210735
43	0xbd66959a	-0.056295015
44	0x3cd8943d	0.026437873
45	0xbd261c57	-0.04055437
46	0xbd152494	-0.036411837
47	0xbd83cb93	-0.06435313
48	0x3d9ef48f	0.077614896
49	0x3c480ac6	0.0122096
50	0x3df3024e	0.11865674
51	0x3e0846e9	0.133083
52	0x3d9ade67	0.07561951
53	0x3e2c3fc5	0.16821201
54	0x3e1cd45d	0.15315385
55	0xbddf6296	-0.10907476
56	0x3d9be208	0.076114714
57	0x3d9193b6	0.07108252
58	0x3de43487	0.11142831
59	0xbd619147	-0.055070188
60	0x3dc184a6	0.09449129
61	0xbdacb2f8	-0.08432573
62	0xbd6ea6d8	-0.058264583
63	0xbc3d3e52	-0.011550503
64	0x3d245c92	0.040127344
65	0xbcc93ceb	-0.02456518
66	0xbd2f437c	-0.042788967
67	0xbd00f3a1	-0.031482343
68	0xbd93b396	-0.07211988
69	0xbd97d804	-0.074142486
70	0x3dcd10a9	0.10012943
71	0xbe1d7651	-0.15377165
72	0x3d9de59e	0.07709812
73	0xbe0f0f22	-0.13970616
74	0xbccbd1d9	-0.024880337
75	0xbb309d80	-0.0026949346
76	0x3b9a0dc2	0.004701347
77	0xbdcd5f6c	-0.10027966
78	0xbd382451	-0.04495651
79	0xbd5fac7e	-0.05460786
80	0xbdcced33	-0.1000618
81	0x3e09be3d	0.13451476
82	0xbd74c412	-0.0597573
83	0x3c4c3a2e	0.012465043
84	0xbd080a55	-0.03321298
85	0x3d466939	0.048440192
86	0xbcf17373	-0.029473996
87	0x3d228b37	0.039683547
88	0x3cfe1b2e	0.03101882
89	0xbded71af	-0.11593949
90	0xbd07d8b3	-0.033165645
91	0xbaf10e2d	-0.0018391066
92	0xbdc64b99	-0.09682388
93	0xbd3defbf	-0.046371218
94	0xbda8d025	-0.082428254
95	0xbd1003df	-0.03515994
96	0xbcef0ad9	-0.029179977
97	0xbe3a69de	-0.18204448
98	0xbd0bece2	-0.034161456
99	0x3da8ec80	0.08248234
100	0x3d95647f	0.07294559
101	0x3de88370	0.11353195
102	0xbc9be639	-0.019030677
103	0xbd8827d1	-0.066482194
104	0x3cc4c12e	0.024017897
105	0x3d16c10a	0.03680519
106	0x3d6518f9	0.05593202
107	0x3d781da9	0.06057516
108	0x3de5f90b	0.11229142
109	0x3db9c2ff	0.09070396
110	0xbe1f805c	-0.15576309
111	0xbc853794	-0.016261853
112	0x3d022fd3	0.03178389
113	0xbe033242	-0.1281214
114	0x3e11954b	0.14217107
115	0xbc9d84e2	-0.019228403
116	0x3d4394ef	0.047749456
117	0x3d107e1c	0.035276517
118	0x3ca85a6e	0.020550933
119	0x3d5bb749	0.05364159
120	0x3cb256c3	0.021769887
121	0xba4ecc37	-0.0007888707
122	0xbd80baa6	-0.062856
123	0x3d13d918	0.03609571
124	0xbe89285d	-0.26788607
125	0x3e4d90c6	0.20074758
126	0x3df6daf9	0.120534845
127	0xbcddf26d	-0.027093137
128	0xbd284afe	-0.041087143
129	0x3d261cbc	0.040554747
130	0xbd7d1ead	-0.061796833
131	0x3caa3750	0.020778328
132	0xbd1a7877	-0.03771254
133	0x3dbf9778	0.09355062
134	0x3dcd0f50	0.10012686
135	0x3d3fed0f	0.046856936
136	0xbdb7b1b7	-0.08969443
137	0xbe1a3c44	-0.15062052
138	0x3c410081	0.011779905
139	0x3da4125b	0.080113135
140	0x3d0d4845	0.03449275
141	0xbcf643f4	-0.0300617
142	0xbda3d017	-0.07998674
143	0x3d623f53	0.055236172
144	0xbd7ecf5a	-0.062209465
145	0xbaae48e0	-0.0013296865
146	0xbd8e7fef	-0.06957995
147	0x3c84f569	0.016230302
148	0x3d0f90c9	0.035050187
149	0xbd976d0e	-0.073938474
150	0xbe43a114	-0.19104415
151	0x3d6e22f0	0.058138788
152	0x3dbbef81	0.09176541
153	0x3c9735a9	0.018458204
154	0x3c7ededb	0.015556063
155	0xbcbdd3aa	-0.023172218
156	0xbbe21ad2	-0.00690017
157	0xbd9dfa15	-0.07713715
158	0xbd81d3e7	-0.06339245
159	0xbdaed085	-0.08535866
160	0x3c1d1c6b	0.009589295
161	0x3de2f6ff	0.11082267
162	0xbd75f565	-0.06004848
163	0xbd4e364f	-0.05034476
164	0x3da8d75e	0.08244203
165	0xbd2d30ce	-0.042282872
166	0xbe120624	-0.14260155
167	0x3d00dc13	0.03145988
168	0xbddbf987	-0.10740953
169	0x3db152ce	0.08658372
170	0xbd4bb8e0	-0.049736857
171	0x3d8b4e7e	0.068020806
172	0x3dbe4dfe	0.092922196
173	0x3d4c931c	0.049944982
174	0xbddcad53	-0.107752465
175	0x3b76a130	0.0037632696
176	0x3d85c890	0.06532395
177	0x3dd78463	0.10523298
178	0xbd7d02a9	-0.061770115
179	0x3d8a8233	0.06763115
180	0x3d3cacc0	0.046063185
181	0x3cbf6600	0.023364067
182	0xbd0bad88	-0.03410104
183	0xbc1c1009	-0.009525307
184	0xbc313a19	-0.010817074
185	0xbd5b023e	-0.053468935
186	0x3cdecc71	0.027197095
187	0x3d77b0d2	0.060471363
188	0x3cb82119	0.02247672
189	0xbe0ac1ae	-0.13550445
190	0x3dabac90	0.08382523
191	0x3d1fd2de	0.039019458
192	0xbb9a1dc1	-0.004703254
193	0x3dc8fb8c	0.09813604
194	0xbc33aa31	-0.01096587
195	0xbc9762f4	-0.018479802
196	0x3d9c0d8c	0.07619771
197	0xbe077886	-0.1322957
198	0xbdb2d4fb	-0.08732029
199	0xbd0826e1	-0.033240203
200	0xbdadbb42	-0.08482982
201	0xbd449917	-0.04799756
202	0xbdf5de65	-0.12005309
203	0xbdefa16c	-0.11700711
204	0x3dd3e3b4	0.10346165
205	0x3dc7ad84	0.09749892
206	0xbd9d1a97	-0.07671087
207	0xbd7d9fcb	-0.06191997
208	0x3bf1fc38	0.007384803
209	0xbce81c5e	-0.028333839
210	0x3dc3f6bf	0.095685475
211	0x3c6d25b9	0.014474326
212	0xbde3d7bc	-0.111251324
213	0xbc0d9696	-0.0086418595
214	0x3e296e9f	0.16546105
215	0xbd1a9694	-0.03774126
216	0x3d9b0303	0.07568934
217	0xbd8d701b	-0.06906148
218	0x3de3f252	0.11130203
219	0x3c2ba645	0.010476653
220	0x3dc507b8	0.09620613
221	0x3d8b8b9e	0.06813739
222	0xbe06a03a	-0.13147059
223	0x3db4fa99	0.0883686
224	0x3d20e234	0.039278224
225	0x3d1788a8	0.03699556
226	0xbc436075	-0.011924853
227	0xbd227bb0	-0.03966874
228	0x3d7ddeb9	0.061979983
229	0xbd42b46a	-0.047535338
230	0x3d148781	0.03626204
231	0x3a6ab953	0.0008954007
232	0x3d772a34	0.060342982
233	0x3daf9cad	0.085748054
234	0x3d132036	0.03591939
235	0xbd8701d7	-0.06592148
236	0x3aacdcc2	0.001318835
237	0x3d465b40	0.048426867
238	0xbe140b93	-0.1445754
239	0xbd8cedad	-0.068812706
240	0x3d787e12	0.060667105
241	0xbd44af79	-0.048018906
242	0x3e081c63	0.13292079
243	0x3be803a8	0.007080514
244	0x3d990fd7	0.07473724
245	0xbb27e9e3	-0.0025621585
246	0x3c8472b2	0.016167972
247	0x3e08e23a	0.13367549
248	0x3d1fbf12	0.03900058
249	0x3d133c14	0.035945967
250	0x3c115200	0.008869648
251	0x3e07e21a	0.13269845
252	0x3d376a38	0.044779032
253	0xbbbdc411	-0.005791195
254	0x3d213137	0.039353576
255	0x3c9e018d	0.019287849

layer1.bias f4 [256]
0	0xbe03a372	-0.12855318
1	0xbdc35bce	-0.09538995
2	0xbda03b01	-0.07823754
3	0xbe579b6d	-0.21055384
4	0xbe8e3695	-0.27776018
5	0xbe3b5d25	-0.1829725
6	0xbe45209e	-0.19250724
7	0xbe255cbe	-0.1614866
8	0xbdb5cd3d	-0.08877037
9	0xbe74cb07	-0.23905574
10	0xbe7268ad	-0.23672743
11	0xbe8a9143	-0.2706395
12	0xbe1cddb6	-0.15318951
13	0xbe5c3328	-0.2150389
14	0xbe8a7153	-0.27039585
15	0xbf00716d	-0.50173074
16	0xbe249843	-0.16073708
17	0xbe24789b	-0.16061632
18	0xbea1c5fa	-0.31596357
19	0xbe038abf	-0.12845896
20	0xbe830955	-0.25593057
21	0xbdc9e357	-0.09857815
22	0xbe32eb0a	-0.17472473
23	0xbe7c3df8	-0.24633014
24	0xbe675f16	-0.22594866
25	0xbe325ead	-0.17418928
26	0xbe31d34d	-0.17365761
27	0xbef703e7	-0.48245165
28	0xbe3ccfa3	-0.18438582
29	0xbe95bda2	-0.2924624
30	0xbde3474d	-0.11097584
31	0xbc67ef6e	-0.014156206
32	0xbe6f5425	-0.23371942
33	0xbdb82990	-0.089923024
34	0xbe235639	-0.1595086
35	0xbe8658c2	-0.26239592
36	0xbdc048a3	-0.09388854
37	0xbe845bd3	-0.25851306
38	0xbe23a403	-0.15980534
39	0xbe7bbf2e	-0.24584648
40	0xbe1ed5b5	-0.1551121
41	0xbd2f6757	-0.042823162
42	0xbea5ce69	-0.3238404
43	0xbe94708a	-0.2899211
44	0xbd99d948	-0.07512146
45	0xbe618974	-0.2202509
46	0xbdb14fc6	-0.08657794
47	0xbe029071	-0.12750413
48	0xbe1514b4	-0.14558679
49	0xbd49fe4d	-0.049314786
50	0xbebad7fd	-0.3649291
51	0xbd8e61f7	-0.06952279
52	0xbea1fb82	-0.31637198
53	0xbe8889a6	-0.26667517
54	0xbe5a541a	-0.21321145
55	0xbe382aa6	-0.17985019
56	0xbea90837	-0.3301408
57	0xbf2a96b5	-0.6663621
58	0xbe8ca7f7	-0.27471897
59	0xbe997ec3	-0.29979524
60	0xbdb268b3	-0.08711376
61	0xbe13e59c	-0.14443058
62	0xbe111918	-0.14169729
63	0xbdd904f6	-0.10596649
64	0xbe7176da	-0.23580495
65	0xbe3b7ff2	-0.18310526
66	0xbc8bd3a0	-0.017068684
67	0xbdec3507	-0.11533552
68	0xbe847650	-0.25871515
69	0xbe5273d7	-0.20552002
70	0xbda04b7a	-0.07826896
71	0xbe95ab3f	-0.29232213
72	0xbd7758d1	-0.060387436
73	0xbe276ca6	-0.1635004
74	0x3cce3a09	0.025174158
75	0xbde39f99	-0.11114425
76	0xbe3933e4	-0.18086201
77	0xbdc90f1d	-0.09817336
78	0xbe71ccf2	-0.23613337
79	0xbe0a8622	-0.1352773
80	0xbe7a3617	-0.24434696
81	0xbdc74984	-0.09730819
82	0xbe8e8509	-0.27835873
83	0xbdb4639b	-0.08808061
84	0xbe617496	-0.2201713
85	0xbe9b0d56	-0.30283612
86	0xbdbf89fb	-0.093524896
87	0xbe4cc50e	-0.19997045
88	0xbe5ad8c2	-0.21371749
89	0xbe6aa564	-0.22914654
90	0xbe822afd	-0.25423422
91	0xbd886e18	-0.06661624
92	0xbe88e2e1	-0.26735595
93	0xbe82b0ab	-0.25525412
94	0xbd8333b1	-0.06406344
95	0xbe1f9095	-0.15582497
96	0xbe0a711e	-0.13519713
97	0xbe24e276	-0.16102013
98	0xbd8dfa17	-0.069324665
99	0xbcebd6b2	-0.028788898
100	0xbe5a5f88	-0.21325505
101	0xbe72c27d	-0.23707004
102	0xbde11657	-0.10990589
103	0xbe5684d5	-0.20949109
104	0xbe816cbb	-0.25278267
105	0xbd66aa0d	-0.056314517
106	0xbe5595a2	-0.20857862
107	0xbdba55a5	-0.09098367
108	0xbe130afb	-0.14359657
109	0xbea4c934	-0.32184756
110	0xbd6f247d	-0.058384407
111	0xbea2cff7	-0.3179929
112	0xbe86545c	-0.26236236
113	0xbdef9476	-0.116982386
114	0xbebb01d1	-0.36524823
115	0xbdfa226d	-0.122135974
116	0xbe8901a0	-0.26759052
117	0xbe6928db	-0.22769491
118	0xbe82b6e6	-0.25530165
119	0xbe3f3229	-0.18671478
120	0xbe24ccfa	-0.16093817
121	0xbe17500e	-0.14776632
122	0xbe642b0f	-0.2228205
123	0xbd9e6f85	-0.077361144
124	0xbe32ca9d	-0.17460103
125	0xbdbea78f	-0.09309303
126	0xbe0822fb	-0.13294594
127	0xbe2105fb	-0.15724938
128	0xbe04a5da	-0.12953892
129	0x3d196ab8	0.03745529
130	0xbe2a0141	-0.16602041
131	0xbe099f2f	-0.1343963
132	0xbe78f284	-0.24311262
133	0xbe905e34	-0.2819687
134	0xbe98e362	-0.2986098
135	0xbdafbb0e	-0.085806
136	0xbdd41401	-0.10355378
137	0xbd874c81	-0.06606389
138	0xbe70b3ff	-0.23506163
139	0xbdfc2ee6	-0.12313633
140	0xbe44aedd	-0.1920733
141	0xbe94cdcd	-0.29063264
142	0xbea02664	-0.3127929
143	0xbe4a2c85	-0.19743545
144	0xbe0849fc	-0.13309473
145	0xbe50707f	-0.20355414
146	0xbe1f5f9d	-0.15563817
147	0xbe6c5c74	-0.23082143
148	0xbe1a3286	-0.15058336
149	0xbe887ce7	-0.26657793
150	0xbd1a29b4	-0.037637427
151	0xbdf1c184	-0.11804488
152	0xbd938c46	-0.072044894
153	0xbe58b52c	-0.21162862
154	0xbe87133f	-0.2638187
155	0xbe5c6e7f	-0.21526526
156	0xbe8a3d5a	-0.26999933
157	0xbe575682	-0.21029094
158	0xbea6cf2a	-0.3257993
159	0xbe704c28	-0.23466551
160	0xbdeacb98	-0.11464614
161	0xbe31dce5	-0.17369421
162	0xbdbdb646	-0.092632815
163	0xbe1830e8	-0.14862406
164	0xbee3c523	-0.4448634
165	0xbe916da4	-0.28403962
166	0x3d11f094	0.035629824
167	0xbe91a492	-0.2844587
168	0xbe7eda72	-0.24888018
169	0xbe69660a	-0.22792831
170	0xbdbe5cf1	-0.09295071
171	0xbe91dfc0	-0.2849102
172	0xbea1e810	-0.31622362
173	0xbd696233	-0.056978416
174	0xbe8a0e56	-0.26964062
175	0xbd8962d6	-0.067083046
176	0xbe3e4e2b	-0.18584506
177	0xbe4b5c08	-0.19859326
178	0xbd995a80	-0.07487965
179	0xbeb1493d	-0.3462619
180	0xbe6ed31e	-0.23322722
181	0xbeb12e45	-0.34605613
182	0xbe5ebea5	-0.21752413
183	0xbdf92bed	-0.12166581
184	0xbe3fe45b	-0.18739454
185	0xbea33865	-0.31878963
186	0xbe309f49	-0.17248262
187	0xbe68d83c	-0.22738737
188	0xbe80096b	-0.25007185
189	0xbe989748	-0.29802918
190	0xbe263a0a	-0.16233078
191	0xbe83a79a	-0.25713807
192	0xbe1288ec	-0.14310044
193	0xbd95f961	-0.07322956
194	0xbe8c241c	-0.273713
195	0xbde71255	-0.112827934
196	0xbe1b3316	-0.15156206
197	0xbd7530d9	-0.059861038
198	0xbe754285	-0.23951156
199	0xbdb31bc9	-0.08745534
200	0xbdac1310	-0.084020734
201	0xbe9248e7	-0.28571245
202	0xbe964610	-0.29350328
203	0xbbc271e1	-0.0059339856
204	0xbe898288	-0.268574
205	0xbe19ca8a	-0.15018669
206	0xbf298003	-0.66210955
207	0xbcfbf054	-0.030754246
208	0xbe05e694	-0.1307624
209	0xbea18a83	-0.3155099
210	0xbd961f6c	-0.07330212
211	0xbde16205	-0.11005024
212	0xbe5d9439	-0.21638574
213	0xbe220545	-0.15822323
214	0xbe5bbdf6	-0.21459183
215	0xbe6de5dc	-0.23232216
216	0xbe16fa46	-0.14743909
217	0xbe586575	-0.21132453
218	0xbe8114c6	-0.2521116
219	0xbe9e41d1	-0.3090959
220	0xbe955454	-0.291659
221	0xbe1d25b9	-0.15346421
222	0xbe45c86b	-0.19314735
223	0xbee58ae6	-0.44832534
224	0xbe64f3b9	-0.22358598
225	0xbe8e9595	-0.27848497
226	0xbdf09d33	-0.11748733
227	0xbe1a4846	-0.15066633
228	0xbe48c128	-0.19604933
229	0xbe91504e	-0.2838158
230	0xbe557cbf	-0.20848368
231	0xbdb7d311	-0.089758046
232	0xbe7ffa17	-0.24997745
233	0xbe88ab7a	-0.26693326
234	0xbe637bf1	-0.22215249
235	0xbe2ce8bb	-0.16885655
236	0xbe8d2d2c	-0.27573526
237	0xbdf1b073	-0.11801233
238	0xbe6dbc6b	-0.23216407
239	0xbebed8c9	-0.3727477
240	0xbde20990	-0.1103698
241	0xbe0b54e8	-0.13606608
242	0xbe4884a5	-0.1958185
243	0xbe97b98b	-0.29633746
244	0xbdaad824	-0.08342007
245	0xbd9b4985	-0.07582382
246	0xbe2a0f1f	-0.1660733
247	0xbe56f47f	-0.20991705
248	0xbe96b90c	-0.29438055
249	0xbe7dbec4	-0.24779803
250	0xbe416e71	-0.18889786
251	0xbe83341b	-0.2562569
252	0xbe6c7e24	-0.23094994
253	0xbf167352	-0.58769715
254	0xbe33177b	-0.17489426
255	0xbdb649e6	-0.08900814

layer2.weight f4 [128, 256]
0	0x3cafa59a	0.02144127
1	0xbd871bae	-0.06597076
2	0x3b230e99	0.0024880527
3	0x3d7df0a1	0.06199706
4	0x3bba648b	0.005688255
5	0xbe1c8ed2	-0.15288857
6	0xbc95e1e3	-0.018296188
7	0x3b81982a	0.003954907
8	0x3cbbbb8a	0.022916574
9	0xbe10b296	-0.14130625
10	0xbc13f3f8	-0.009030335
11	0x3d564626	0.052312993
12	0xbdb4f03d	-0.08834884
13	0xbdbba340	-0.09161997
14	0xbdf1c7b7	-0.11805671
15	0xbe433644	-0.1906367
16	0x3cb33e61	0.02188033
17	0x3db9b844	0.09068349
18	0xbe299eb8	-0.16564453
19	0xbc74f711	-0.014951483
20	0xbd3e2758	-0.04642424
21	0xbe24b1e2	-0.16083482
22	0xbe54c3dd	-0.20777841
23	0x3deb76db	0.11497279
24	0xbe2f2c47	-0.17106734
25	0x3e159d86	0.14610872
26	0xbbf0d76f	-0.0073499004
27	0xbc8dc660	-0.017306507
28	0x3df9d5d5	0.12198988
29	0xbe1d8e7f	-0.15386389
30	0xbd5b11b1	-0.05348367
31	0xbdec63b0	-0.115424514
32	0x3d51fb5c	0.051265106
33	0xbd959d25	-0.073053636
34	0xbcb26b06	-0.021779548
35	0x3d2f6de2	0.0428294
36	0x3cf18055	0.029480139
37	0xbc179718	-0.009252332
38	0x3cf81bd0	0.0302867
39	0xbd7b7198	-0.06138763
40	0xbd8a213b	-0.067446195
41	0x3d37c7ff	0.044868466
42	0x3e28b61b	0.16475718
43	0x3c92dee4	0.017928548
44	0xb7e2afb8	-2.7023125e-05
45	0xbdd881da	-0.10571642
46	0xbe1944df	-0.14967678
47	0xbc3b6d99	-0.011439704
48	0xbda1943c	-0.078896016
49	0xbd49ddc8	-0.049283773
50	0x3df797c9	0.120894976
51	0x3d0e0f4d	0.03468256
52	0x3e00043b	0.12501614
53	0x3d961306	0.07327847
54	0x3d8e3f69	0.06945688
55	0xbd1a9041	-0.037735227
56	0xbe5ac2ef	-0.21363424
57	0xbe621363	-0.22077708
58	0xbdfbda63	-0.12297513
59	0xbcd0d5f0	-0.025492638
60	0x3c69c889	0.014269003
61	0xbe289190	-0.16461778
62	0x3de5509e	0.11197017
63	0x3c98bf62	0.018645946
64	0x3d81735a	0.0632083
65	0x3dcbf79f	0.09959339
66	0xbdb89b54	-0.090140015
67	0x3c908749	0.017642634
68	0xbd3678f3	-0.04454894
69	0x3db8f66e	0.09031378
70	0xbdf34d17	-0.11879938
71	0x3c468cad	0.012118501
72	0xbe4fd836	-0.20297322
73	0xbd0acee2	-0.033888705
74	0xbe57dd10	-0.21080422
75	0xbdb5c91f	-0.088762514
76	0x3d877976	0.06614964
77	0xbd04ac78	-0.03239104
78	0x3d0cc293	0.034365248
79	0xbdfe4e65	-0.12417296
80	0x3d135aa9	0.035975132
81	0xbe1d568b	-0.15365045
82	0x3e05af11	0.13055064
83	0xbd16bb30	-0.03679961
84	0x3e07a2b7	0.13245665
85	0xbd8773d3	-0.066138886
86	0xbcd52965	-0.026020715
87	0x3db6118d	0.08890066
88	0xbe28bb6b	-0.16477744
89	0x3cb53229	0.022118645
90	0xbe1219fa	-0.14267722
91	0x3d3500db	0.04419027
92	0xbbea492d	-0.0071498365
93	0xbdff49d3	-0.12465253
94	0x3d6ebc9d	0.058285344
95	0x3c5838cf	0.013197138
96	0x3ce565d4	0.028002657
97	0x3e5aedd8	0.21379793
98	0xbcc04e00	-0.023474693
99	0xbe05425f	-0.130136
100	0x3de13fe2	0.10998513
101	0xbd93df40	-0.07220316
102	0xbd555956	-0.05208715
103	0xbd81c03e	-0.063354954
104	0x3d248bf3	0.04017253
105	0xbc59d570	-0.013295516
106	0xbda400fa	-0.08007999
107	0xbb3e6642	-0.002905265
108	0xbc8d3888	-0.01723887
109	0x3c98eb21	0.018666806
110	0xbcc7a38f	-0.024369983
111	0x3d1eb2b7	0.038744655
112	0x3b57ce96	0.0032929531
113	0x3c291c76	0.010321727
114	0x3dcf7d4c	0.1013132
115	0xbe012baf	-0.1261432
116	0xbe0806ec	-0.1328389
117	0x3dc5fd93	0.09667506
118	0x3c3983db	0.011322941
119	0xbb65e05f	-0.0035076363
120	0xbd2a992a	-0.041649975
121	0x3bf3d041	0.0074405973
122	0xbd92485f	-0.0714271
123	0xbe40540b	-0.1878206
124	0x3da93fec	0.08264145
125	0xbd8f79a9	-0.07005627
126	0x3d7efd7a	0.062253453
127	0x3a9de732	0.0012047051
128	0x3db9fe3e	0.09081696
129	0x3caa3aa0	0.020779908
130	0x3dab8b52	0.083761826
131	0x3d80674e	0.06269704
132	0xbe2ba5ea	-0.1676251
133	0xbdbbf576	-0.09177677
134	0xbd105cd7	-0.03524479
135	0x3c8eb55e	0.017420467
136	0xbd18d50b	-0.03731255
137	0x3d946509	0.072458334
138	0x3d90447c	0.07044312
139	0x3d3b6515	0.045750696
140	0x3cafa188	0.021439329
141	0x3d0f2db4	0.034955695
142	0x3dade53d	0.08490989
143	0xbd6a1690	-0.057150424
144	0x3bc398ee	0.0059691584
145	0x3ce49df3	0.027907347
146	0x3da67acd	0.08128891
147	0xbc9c9658	-0.019114658
148	0xbc71c06b	-0.014755349
149	0x3daab800	0.083358765
150	0xbc0f3ae9	-0.008742073
151	0x3dce708b	0.100800596
152	0xbd6b1eb2	-0.05740232
153	0x3ddabc13	0.106804036
154	0xbd3f7638	-0.0467436
155	0xba1d6d43	-0.0006005356
156	0x3d98800a	0.074462965
157	0xbdf1047d	-0.11768434
158	0x3dda3de4	0.10656336
159	0xbd021a89	-0.031763587
160	0xbc958d1e	-0.018255766
161	0x3e12fad7	0.143535
162	0x3d2cf0a5	0.042221684
163	0x3ca9c28b	0.020722648
164	0x3d6c1fe4	0.0576476
165	0xbdc995bd	-0.098430134
166	0x3d986a14	0.07442108
167	0xbd7c5115	-0.061600763
168	0x3d400f17	0.04688939
169	0x3d029e81	0.031889442
170	0xbda0cf5f	-0.07852053
171	0xbe31e68a	-0.173731
172	0xbcda5bb9	-0.026655065
173	0xbbc8dba7	-0.0061297
174	0x3e0555a7	0.13020955
175	0x3d0254c4	0.03181912
176	0xbdbfe709	-0.09370238
177	0xbdc118a7	-0.0942853
178	0x3e293fa6	0.16528186
179	0x3d0a0834	0.03369923
180	0x3e539b50	0.20664716
181	0x3c404599	0.011735343
182	0xbceecf70	-0.029151648
183	0x3caf0145	0.02136291
184	0x3c3d37f4	0.011548985
185	0x3e08f079	0.13372983
186	0xbbcaac31	-0.0061850776
187	0xbddd7d82	-0.10814954
188	0xbd46f241	-0.048570875
189	0xbcdbd786	-0.026836168
190	0x3d82618a	0.0636626
191	0xbd6a4e0d	-0.05720334
192	0x3dc39d4e	0.09551488
193	0x3d201df3	0.03909106
194	0x3ccc9723	0.024974411
195	0xbd1bb8d9	-0.03801808
196	0x3dadb29a	0.08481331
197	0x3cd6ab05	0.026204595
198	0x3db9be25	0.0906947
199	0x3d949997	0.072558574
200	0xbd2d4707	-0.042304065
201	0xbd8516ce	-0.0649849
202	0xbc7ee0ab	-0.015556495
203	0xbcb0e2e7	-0.02159257
204	0x3a56fcf9	0.0008201148
205	0x3d468e22	0.048475392
206	0xbdd30464	-0.10303572
207	0x3e0a2c71	0.13493516
208	0x3d0d9be2	0.03457249
209	0xbc98b56d	-0.018641198
210	0xbd95c623	-0.07313182
211	0xb8fc8f2a	-0.00012042963
212	0x3e0411d5	0.12897427
213	0xbdc7e622	-0.09760691
214	0xbdf59388	-0.1199103
215	0xbd090202	-0.03344918
216	0xbe474148	-0.19458497
217	0x3d5080d8	0.050904125
218	0x3db43422	0.08799006
219	0x3bb2673a	0.0054444345
220	0x3d3d88ab	0.046272915
221	0xbdb278b3	-0.08714428
222	0x39806370	0.0002448815
223	0x3d8e5ce1	0.06951309
224	0xbda9acc4	-0.082849056
225	0xbcf4f5ff	-0.029902456
226	0xbdb0eca9	-0.08638889
227	0xbd100d11	-0.03516871
228	0x3d60eeb1	0.054915134
229	0x3c1b4680	0.009477258
230	0xbd712d3b	-0.058881026
231	0x3c90a056	0.01765458
232	0xbe06d697	-0.13167797
233	0xbe4ffd0a	-0.2031137
234	0x3cb80ef4	0.022468068
235	0x3dae70a0	0.08517575
236	0x3b98dd99	0.0046650884
237	0x3d44ba3c	0.04802917
238	0xbd39fc29	-0.045406494
239	0x3dbc68bb	0.09199663
240	0xbdb046b7	-0.08607238
241	0x3d784457	0.06061205
242	0xbd370d27	-0.044690277
243	0x3e117be2	0.14207414
244	0x3d7eb3b7	0.06218311
245	0xbd3563b9	-0.044284556
246	0x3dded69b	0.108807765
247	0xbe4397b8	-0.19100845
248	0xbe143015	-0.14471467
249	0x3d695a35	0.056970794
250	0x3e097c62	0.13426355
251	0xbd95a263	-0.073063634
252	0x3de7d5a1	0.11320043
253	0xbe326b88	-0.17423832
254	0xbd9f5e02	-0.077816024
255	0x3d6097e5	0.054832358

layer2.bias f4 [128]
0	0xbe53d25c	-0.20685714
1	0xbeb39c16	-0.35080022
2	0xbe983060	-0.29724407
3	0xbe528432	-0.20558241
4	0xbe690dcd	-0.22759171
5	0xbde75456	-0.11295383
6	0xbdcff597	-0.101542644
7	0xbe85ae81	-0.26109698
8	0xbe357fad	-0.17724486
9	0xbd9d27d7	-0.076736145
10	0xbe75a75a	-0.23989621
11	0xbd4efb8b	-0.05053286
12	0x3dc97c08	0.0983811
13	0xbe2c329f	-0.16816185
14	0xbe7bb48f	-0.24580596
15	0xbe4e4fb4	-0.20147592
16	0xbd15b85c	-0.036552772
17	0xbdcbf88d	-0.09959517
18	0xbca53b78	-0.020169958
19	0xbe75bddb	-0.23998205
20	0xbe044ba2	-0.12919477
21	0xbe299d1d	-0.1656384
22	0xbe248edd	-0.16070123
23	0xbf63af20	-0.88939095
24	0x3de2d11e	0.11075042
25	0xbe3d2740	-0.18472004
26	0x3ddbc9ce	0.107318506
27	0xbdff0efc	-0.1245403
28	0x3d89e7f4	0.06733695
29	0xbdcdadf4	-0.100429446
30	0xbe55ba30	-0.20871806
31	0xbc6a703b	-0.014308984
32	0xbde91761	-0.11381412
33	0xbe3ea2b4	-0.18616754
34	0xbe397e7b	-0.18114655
35	0x3e30f0dd	0.17279382
36	0xbd7ef3c8	-0.062244207
37	0xbe42707a	-0.18988219
38	0xbe519d1c	-0.20470089
39	0xbea6a9ce	-0.32551426
40	0xbcbe2d44	-0.023214944
41	0xbd838cc3	-0.064233325
42	0xbd1f6bfc	-0.03892134
43	0xbe080d60	-0.13286352
44	0xbe87d144	-0.26526845
45	0xbee9bb47	-0.45650694
46	0xbe8e2134	-0.27759707
47	0xbe965b72	-0.29366642
48	0xbdc61ecb	-0.09673842
49	0xbf5c5ce3	-0.86079234
50	0xbddf4f85	-0.10903839
51	0xbe3d0dff	-0.1846237
52	0x3de672d8	0.112523735
53	0xbe76c3a2	-0.24098065
54	0xbd2b012d	-0.04174917
55	0xbf9c78f3	-1.2224411
56	0xbe992ce6	-0.29917067
57	0xbe354344	-0.17701441
58	0xbe1d2b80	-0.15348625
59	0xbe09a379	-0.13441266
60	0xbd1749cf	-0.036935624
61	0xbddd9f60	-0.10821414
62	0xbebf310e	-0.37342113
63	0x3a9550db	0.0011391895
64	0xbdfeb58f	-0.12436973
65	0xbda9ac67	-0.08284836
66	0xbe09f66b	-0.13472907
67	0xbd8dab32	-0.069174185
68	0xbe1e5026	-0.15460262
69	0xbe95d691	-0.29265264
70	0xbd1dc419	-0.03851709
71	0xbe86d1c1	-0.26331905
72	0xbe5db1af	-0.21649812
73	0xbe2c1558	-0.16805017
74	0xbe7c5aa9	-0.24643959
75	0xbdbd8b34	-0.092550665
76	0xbd85424c	-0.06506786
77	0xbdbb495b	-0.09144851
78	0xbe350dff	-0.1768112
79	0xbe5de4ef	-0.21669362
80	0x39ac797a	0.00032896904
81	0x3d7a21d3	0.061067414
82	0xbe38f819	-0.18063392
83	0xbe33d69c	-0.17562336
84	0xbebdb2d1	-0.3705049
85	0xbcc3755e	-0.023859676
86	0xbf930297	-1.1485165
87	0xbe322518	-0.17396963
88	0x3e1ee2d2	0.15516213
89	0xbe3285aa	-0.17433801
90	0x3d83d166	0.06436424
91	0xbe2d30dd	-0.16913171
92	0xbd5e7934	-0.054314807
93	0xbdc942c4	-0.09827188
94	0xbd6fe8be	-0.05857157
95	0x3d0e1338	0.034686297
96	0xbe08bff6	-0.13354477
97	0xbe5b0c3b	-0.21391384
98	0x3d6b5068	0.05744973
99	0xbe4b504b	-0.19854848
100	0xbe1d1f30	-0.15343928
101	0xbe6cbbd6	-0.23118529
102	0x3d34bfc9	0.044128213
103	0xbe36f037	-0.17865072
104	0xbd4a4a10	-0.049387038
105	0xbe284b2c	-0.16434926
106	0xbe179e09	-0.1480638
107	0xbe282877	-0.16421686
108	0xbe51cb79	-0.20487775
109	0xbe40489a	-0.18777695
110	0xbea509e2	-0.32234102
111	0xbddd363f	-0.10801362
112	0xbe1aca0d	-0.15116139
113	0xbdd04dfc	-0.10171124
114	0xbd52aec3	-0.051436197
115	0xbe89d666	-0.26921386
116	0xbcb0544a	-0.021524567
117	0xbe28fa23	-0.1650167
118	0xbceff595	-0.029291907
119	0xbe4fc17d	-0.20288654
120	0x3e1f8902	0.15579608
121	0xbe8d47c4	-0.27593815
122	0xbeaca9f9	-0.3372343
123	0x3d7a49bd	0.06110548
124	0xbe3ba9ee	-0.18326542
125	0xbd036af9	-0.03208444
126	0xbdccfe17	-0.10009401
127	0xbe64102a	-0.22271791

layer3.weight f4 [40, 128]
0	0xbe322bc9	-0.17399515
1	0xbe10e7e9	-0.14150967
2	0xbe1851d3	-0.14874963
3	0x3e008b49	0.12553133
4	0xbe0821b6	-0.1329411
5	0xbde9e6ad	-0.11420951
6	0xbd8f5c43	-0.070000194
7	0xbe09cb43	-0.13456444
8	0xbdcbebeb	-0.09957107
9	0x3e24b152	0.16083267
10	0xbdd882ac	-0.10571799
11	0xbde82199	-0.11334533
12	0xbdcb39d5	-0.0992314
13	0x3dd4ed66	0.10396843
14	0xbe205f87	-0.15661441
15	0xbdb191da	-0.08670397
16	0x3a814b23	0.0009864311
17	0x3c9a9cf6	0.018873673
18	0xbc0d76fe	-0.008634327
19	0x3dd3b659	0.103375144
20	0xbc613893	-0.0137463985
21	0xbd984920	-0.074358225
22	0x3d74257a	0.059606053
23	0x3e1bc862	0.15213159
24	0x3ce1d0d3	0.027565395
25	0x3d9825b4	0.07429066
26	0x3e122dd3	0.14275293
27	0xbd94b33b	-0.07260748
28	0x3cc504d1	0.024050148
29	0x3d40fc58	0.047115654
30	0xbe25ee8b	-0.16204278
31	0x3b79ec02	0.0038135056
32	0x3ded610f	0.11590778
33	0xbded69dc	-0.11592457
34	0xbe629582	-0.22127345
35	0xbe209594	-0.1568206
36	0x3dc8daa6	0.09807329
37	0x3d942f30	0.07235563
38	0x3c1fdc89	0.0097571695
39	0x3c1d35f7	0.009595386
40	0x3d9a9fb5	0.07549993
41	0x3e3c6331	0.18397214
42	0xbdd8a425	-0.10578183
43	0x3d998682	0.074963585
44	0xbdbcdefb	-0.09222218
45	0x3d3f3123	0.04667772
46	0x3d98cc21	0.074608095
47	0xbcb4557f	-0.022013424
48	0xbce0ca86	-0.02744032
49	0x3e1eff88	0.15527165
50	0x3e1e8230	0.1547935
51	0xbdd69fca	-0.10479696
52	0x3e3cf630	0.18453288
53	0xbdf31ccb	-0.11870726
54	0x3cfae731	0.030627819
55	0x3dad0c6f	0.08449637
56	0xbe0c1d31	-0.1368301
57	0x3db339a8	0.087512314
58	0xbe7b27a6	-0.24526843
59	0x3c7dd1f4	0.015491951
60	0xbd5cbaf1	-0.05388922
61	0xbe590f52	-0.2119725
62	0xbe5719e0	-0.21005964
63	0xbe143a05	-0.14475258
64	0xbcbfa4ba	-0.023393977
65	0xbe096788	-0.134184
66	0xbe5b909f	-0.21441887
67	0x3e156582	0.14589503
68	0x3e30326b	0.17206733
69	0x3de972a0	0.11398816
70	0x3dd6e150	0.10492194
71	0xbe4febbc	-0.2030477
72	0xbe1c0d65	-0.15239485
73	0xbe43253a	-0.1905717
74	0xbd59c001	-0.053161625
75	0xbd95f8f2	-0.07322873
76	0xbcbf1862	-0.023327056
77	0x3e5e088d	0.2168295
78	0xbda015d5	-0.07816664
79	0xbdfd97aa	-0.12382443
80	0xbd70845a	-0.05871997
81	0x3d8375e1	0.06418968
82	0x3d2adfd5	0.04171737
83	0x3d9dfbd0	0.07714045
84	0x3db2dcce	0.087335214
85	0x3e123c62	0.14280847
86	0x3e13d844	0.14437968
87	0xbe003b9b	-0.12522738
88	0x3d00e8aa	0.031471886
89	0xbcb544bd	-0.022127504
90	0xbb511180	-0.00319013
91	0xbdd3a09e	-0.1033337
92	0x3e24ed10	0.16106057
93	0xbdcd0490	-0.10010636
94	0xbe0ad0b6	-0.1355618
95	0x3c25d610	0.010121837
96	0x3ac503da	0.0015031055
97	0xbe689b00	-0.22715378
98	0xbdb4fb86	-0.08837037
99	0x3dbf3831	0.093368895
100	0x3cd8cf2d	0.026465977
101	0xbd9b2acf	-0.075765245
102	0x3e1d5da6	0.15367755
103	0xbdb07ef3	-0.08617964
104	0x3e14362b	0.14473788
105	0x3e3d82d0	0.18506932
106	0xbd80d81c	-0.062912196
107	0xbd235122	-0.039872296
108	0x3e04904f	0.12945674
109	0xbcc26fd9	-0.023734974
110	0x3dcadd97	0.09905546
111	0xbd256825	-0.040382523
112	0xbe7e28dd	-0.24820276
113	0xbd201ddc	-0.039090976
114	0xbe56d3d5	-0.20979245
115	0x3e022b56	0.12711844
116	0xbe099b43	-0.13438134
117	0xbd06c644	-0.032903925
118	0xbce11fae	-0.027480926
119	0x3de43700	0.11143303
120	0x3d606f53	0.054793667
121	0xbe1beba7	-0.15226613
122	0x3df30971	0.11867035
123	0x3d91656d	0.070994236
124	0xbe0ae4d4	-0.13563854
125	0x3d650bc7	0.055919435
126	0xbe199fa2	-0.15002301
127	0x3d99ce99	0.075101085
128	0xbe6d9969	-0.23203053
129	0xbdf26cda	-0.11837168
130	0xbe561bc1	-0.20909025
131	0x3da82591	0.0821029
132	0x3d07b543	0.03313185
133	0x3d381fa0	0.044952035
134	0x3da5f9db	0.08104297
135	0xbd899d23	-0.067194246
136	0x3db49903	0.08818247
137	0xbe04344e	-0.12910578
138	0xbdcdc1a4	-0.100467
139	0xbdfd39ee	-0.12364565
140	0xbd58556f	-0.05281585
141	0xbe6440d0	-0.22290349
142	0x3ddfb4f8	0.10923189
143	0xbda9faa1	-0.08299757
144	0xbd4f8004	-0.050659195
145	0x3d1b151b	0.037861925
146	0x3dbe53a0	0.09293294
147	0xbe84907c	-0.25891483
148	0xbe00c468	-0.12574923
149	0x3d835214	0.064121395
150	0x3c972af9	0.018453108
151	0x3dffe1c2	0.12494232
152	0xbd3a0c5d	-0.045421947
153	0xbdfe3061	-0.12411571
154	0x3e1302db	0.14356558
155	0x3c3edecf	0.011649801
156	0xbc95d0a4	-0.018287964
157	0x3cd83a88	0.026395097
158	0x3db8ee6b	0.090298496
159	0x3d21cfe9	0.03950492
160	0xbcc5be94	-0.024138726
161	0x3de3776b	0.111067615
162	0x3dbaab16	0.09114663
163	0xbdca9bb3	-0.098929785
164	0x3e4869b5	0.19571574
165	0xbe7201c6	-0.23633489
166	0x3db3f4bb	0.08786913
167	0xbe582d36	-0.21110997
168	0x3dd18abd	0.1023154
169	0xbd8be496	-0.06830709
170	0x3e06ecbe	0.13176247
171	0xbdc0b120	-0.09408784
172	0xbded9604	-0.11600879
173	0x3ddd6905	0.108110465
174	0xbe8f66b7	-0.28008053
175	0xbd53b194	-0.051683024
176	0xbe0355fa	-0.12825766
177	0x3df2eb5b	0.11861297
178	0x3de385d5	0.11109511
179	0x3da00da1	0.078150995
180	0x3e172262	0.1475921
181	0xbe3ca4c8	-0.18422234
182	0xbd489077	-0.048965897
183	0x3e6ad452	0.22932556
184	0xbddee93c	-0.1088433
185	0xbcb3939e	-0.021920975
186	0xbca3ee5d	-0.020011121
187	0xbd91eac7	-0.07124858
188	0x3de6dca2	0.11272551
189	0x3dc4b1c0	0.096042156
190	0xbe572c64	-0.21013027
191	0xbc92b49e	-0.01790839
192	0xbe4f6504	-0.20253378
193	0xbe91515b	-0.28382382
194	0xbe4f4ef3	-0.2024496
195	0xbe034fd3	-0.1282342
196	0x3d631630	0.05544108
197	0x3ca4a2fc	0.020097248
198	0x3e1338cb	0.14377134
199	0xbd85c4ef	-0.06531703
200	0xbd541d46	-0.05178573
201	0xbe6a59ca	-0.22885814
202	0xbde7261f	-0.11286568
203	0xbd9f7a32	-0.07786979
204	0xbe27659c	-0.16347355
205	0x3cf54c94	0.029943742
206	0x3ca7a371	0.020463677
207	0x3daa82f7	0.08325761
208	0xbda2b07c	-0.07943818
209	0x3d96a3ec	0.07355484
210	0x3d208cef	0.039196905
211	0xbe77f0f6	-0.24213013
212	0x3c3c04b6	0.011475733
213	0xbdc030ef	-0.09384333
214	0x3d1c5a69	0.03817216
215	0xbe480f33	-0.19537048
216	0xbbc93d9d	-0.006141378
217	0xbe5ac4aa	-0.21364084
218	0xbd91b7b4	-0.07115117
219	0x3e3301f0	0.17481208
220	0x3e1085ce	0.14113542
221	0x3d04db05	0.032435436
222	0x3db0b70b	0.08628663
223	0xbde8eb4f	-0.113730066
224	0xbd41fec1	-0.047362093
225	0xbe70da50	-0.2352078
226	0x3d8ece0a	0.069728926
227	0x3dc6fe17	0.097164325
228	0xbde16ba6	-0.110068604
229	0xbdd1eb08	-0.10249907
230	0xbc209b65	-0.009802674
231	0xbd220ffd	-0.03956603
232	0xbd0affd1	-0.03393537
233	0xbdb545e3	-0.088512205
234	0x3cf1656d	0.029467309
235	0x3e0a685e	0.13516375
236	0xbe811af4	-0.25215876
237	0xbd8adb91	-0.0678016
238	0xbe561b37	-0.20908819
239	0x3d9870fd	0.07443426
240	0xbe8fbd3b	-0.2807406
241	0xbcbb6c82	-0.022878889
242	0x3d9e4816	0.07728593
243	0xbd831546	-0.06400542
244	0x3e223852	0.15841797
245	0xbe2c4566	-0.16823348
246	0x3e4896a3	0.19588713
247	0xbb8cd3b2	-0.004297697
248	0xbd471c1c	-0.04861079
249	0x3e094073	0.13403492
250	0xbe1da262	-0.15393975
251	0xbd6aea69	-0.057352457
252	0xbdbb2fb8	-0.09139961
253	0x3d777e5f	0.06042325
254	0x3c327d42	0.010894122
255	0x3de9cee1	0.11416412

layer3.bias f4 [40]
0	0xbe8524b7	-0.26004574
1	0xbe9b7efb	-0.30370316
2	0xbeb46cd4	-0.3523928
3	0xbec57c77	-0.38571522
4	0xbee7b911	-0.45258382
5	0xbe9669da	-0.29377633
6	0xbebac038	-0.36474776
7	0xbe8cd385	-0.27505127
8	0xbecd0814	-0.40045226
9	0xbea1206b	-0.31470045
10	0xbea5de05	-0.3239595
11	0xbebe2bbd	-0.37142745
12	0xbed9c451	-0.4253259
13	0xbee0af84	-0.43883908
14	0xbedf8e64	-0.43663323
15	0xbea08164	-0.31348717
16	0xbe98d72c	-0.29851663
17	0xbe985eff	-0.29759976
18	0xbeec2fed	-0.46130314
19	0xbeac2b4b	-0.3362678
20	0xbea46d98	-0.32114863
21	0xbe9a4898	-0.3013351
22	0xbeafdcc0	-0.34348106
23	0xbebb231e	-0.3655023
24	0xbe915aa4	-0.28389466
25	0xbec209fe	-0.37898248
26	0xbe863e56	-0.26219434
27	0xbec79a63	-0.38984975
28	0xbe92cc6d	-0.2867159
29	0xbeaca21c	-0.3371743
30	0xbea3a573	-0.31962165
31	0xbe853d1e	-0.2602319
32	0xbeb5d969	-0.35517433
33	0xbeb85654	-0.36003363
34	0xbec97b0f	-0.393517
35	0xbea85c33	-0.32882842
36	0xbea4b07c	-0.32165897
37	0xbef4da8b	-0.47822985
38	0xbec8727d	-0.39149848
39	0xbe962bbe	-0.29330248

bn1.weight f4 [512]
0	0x3f51c761	0.81944853
1	0x3f544a55	0.8292592
2	0x3f8797ab	1.059316
3	0x3f66326c	0.8992069
4	0x3f91b850	1.1384373
5	0x3f479288	0.77957964
6	0x3f640f15	0.89085513
7	0x3f9c5333	1.221289
8	0x3f8d349b	1.1031679
9	0x3f82f142	1.0229876
10	0x3f6367b7	0.8883013
11	0x3f67c6c1	0.9053765
12	0x3f7bda3e	0.98379886
13	0x3f90ac42	1.1302569
14	0x3f4f1a7e	0.808998
15	0x3f7e1a6a	0.99259055
16	0x3f7eb8a7	0.9950051
17	0x3f925431	1.1431943
18	0x3f88e949	1.0696193
19	0x3f8cda83	1.1004184
20	0x3f8690ec	1.0512977
21	0x3f5b6f5b	0.8571679
22	0x3f8eae95	1.1147028
23	0x3f90590d	1.1277176
24	0x3f9c9fa9	1.2236224
25	0x3f8da800	1.1066895
26	0x3f7d85d4	0.9903233
27	0x3f842a68	1.0325441
28	0x3f8733db	1.05627
29	0x3f987405	1.1910406
30	0x3f70cf9a	0.94066775
31	0x3f6b9d48	0.9203687
32	0x3f59346d	0.8484562
33	0x3f873dae	1.0565698
34	0x3f80cf9e	1.006336
35	0x3f8f4eb4	1.1195893
36	0x3f7363ef	0.9507436
37	0x3f803846	1.0017173
38	0x3f83179f	1.0241584
39	0x3f66ba16	0.90127695
40	0x3f68e6f9	0.90977436
41	0x3f8b9c3c	1.0907054
42	0x3f962e07	1.1732796
43	0x3f939867	1.1530885
44	0x3f83cbc4	1.0296559
45	0x3f417eff	0.75584406
46	0x3f5c1917	0.85975784
47	0x3f79cad5	0.9757512
48	0x3f977d9a	1.1835206
49	0x3f585d73	0.8451759
50	0x3f94d105	1.1626288
51	0x3f70369f	0.93833345
52	0x3f8a0e04	1.0785527
53	0x3f8e445e	1.1114614
54	0x3f86bea2	1.0526927
55	0x3f8cf13d	1.101112
56	0x3f63787e	0.8885573
57	0x3f6d0d9d	0.925989
58	0x3f78ca2c	0.9718349
59	0x3f7a64d3	0.97810096
60	0x3f6923a5	0.91070014
61	0x3f4e9395	0.8069394
62	0x3f7d43d3	0.98931617
63	0x3f716570	0.94295406
64	0x3f7669c9	0.96255165
65	0x3f919c5f	1.1375846
66	0x3f568df3	0.8381035
67	0x3f6a033f	0.91411203
68	0x3f8c528d	1.0962692
69	0x3f7f9790	0.9984064
70	0x3f67ed9d	0.90596944
71	0x3f788bea	0.9708849
72	0x3f78ea17	0.9723219
73	0x3f878da9	1.0590106
74	0x3f954988	1.1663065
75	0x3f8ac28c	1.0840621
76	0x3f82b4b8	1.0211401
77	0x3f4e6ed7	0.8063788
78	0x3f8652ee	1.0494058
79	0x3f82602d	1.01856
80	0x3f645b60	0.8920193
81	0x3f74fe12	0.9570018
82	0x3f7d7fdb	0.99023217
83	0x3f886806	1.0656745
84	0x3f66eaa5	0.9020179
85	0x3f86d82f	1.0534724
86	0x3f6b4316	0.9189924
87	0x3f96133f	1.1724623
88	0x3f6d5270	0.92703915
89	0x3f879f8d	1.0595566
90	0x3f4570d9	0.77125317
91	0x3f8cc595	1.0997797
92	0x3f7cc2da	0.9873482
93	0x3f9189f4	1.1370225
94	0x3f826462	1.0186884
95	0x3f3a1106	0.72682226
96	0x3f8060ad	1.0029503
97	0x3f9110ec	1.1333289
98	0x3f96be54	1.1776834
99	0x3f807b15	1.0037562
100	0x3f891e3d	1.0712353
101	0x3f86a39b	1.0518678
102	0x3f96254d	1.1730133
103	0x3f70f57f	0.941246
104	0x3f880312	1.0625937
105	0x3f57237c	0.8403852
106	0x3f8bd3bf	1.0923995
107	0x3f861a0a	1.0476696
108	0x3f81feba	1.0155861
109	0x3f76e2c2	0.96439755
110	0x3f6b3bc5	0.91888076
111	0x3f73b9a2	0.9520513
112	0x3f52b252	0.82303345
113	0x3f747716	0.9549421
114	0x3f8d56f6	1.1042163
115	0x3f81787f	1.0114897
116	0x3f799819	0.9749771
117	0x3f9fe431	1.2491513
118	0x3f6ac787	0.91710705
119	0x3f6a2ad4	0.914716
120	0x3f7656c6	0.96226156
121	0x3fad343d	1.3531567
122	0x3f91ddfa	1.1395867
123	0x3f8632fb	1.0484308
124	0x3f942439	1.1573554
125	0x3f91886b	1.1369756
126	0x3f7c8241	0.9863625
127	0x3f99a19b	1.2002443
128	0x3f4d65e7	0.80233616
129	0x3f5395a5	0.82650214
130	0x3f57ecbf	0.8434562
131	0x3f770a94	0.96500516
132	0x3f86cf9a	1.0532105
133	0x3fa00ecb	1.2504514
134	0x3f9e6a4e	1.2376192
135	0x3fb023c6	1.3760917
136	0x3f654faa	0.8957468
137	0x3f8c97e3	1.0983852
138	0x3f5e76e7	0.8690018
139	0x3f9425b7	1.157401
140	0x3f988e9e	1.1918523
141	0x3f9bbf3c	1.2167735
142	0x3f7f3f53	0.99706
143	0x3f564b32	0.8370849
144	0x3f8d64c4	1.1046376
145	0x3f81d012	1.0141623
146	0x3f804c64	1.0023313
147	0x3f828799	1.0197631
148	0x3f6c81d1	0.92385584
149	0x3f757c17	0.9589247
150	0x3fa01513	1.2506431
151	0x3f804a58	1.0022688
152	0x3f74ab9a	0.95574343
153	0x3f6a0cf1	0.91425997
154	0x3f5acf11	0.8547221
155	0x3fc1756d	1.511396
156	0x3f863be5	1.0487028
157	0x3f868855	1.0510355
158	0x3f78b51c	0.9715135
159	0x3fa25bb7	1.2684239
160	0x3f767018	0.9626479
161	0x3f8debc8	1.108758
162	0x3f707e23	0.9394247
163	0x3f6c6b58	0.92351294
164	0x3f5bffe5	0.8593734
165	0x3f8311ca	1.0239804
166	0x3f6fc582	0.9366075
167	0x3f911a38	1.1336126
168	0x3f2fa1cb	0.6860625
169	0x3f55e5f2	0.83553994
170	0x3f667906	0.9002842
171	0x3f66b82a	0.9012476
172	0x3f7a4d4e	0.9777421
173	0x3f904c5a	1.1273301
174	0x3f7f5d6b	0.9975192
175	0x3f72ef1b	0.94896096
176	0x3f9f4064	1.2441525
177	0x3f898d94	1.0746331
178	0x3f9a3738	1.2048101
179	0x3f64866b	0.89267606
180	0x3f93c473	1.1544327
181	0x3f6afd6d	0.9179295
182	0x3f9d1838	1.2273016
183	0x3f514e8e	0.8176049
184	0x3f9f0b52	1.242533
185	0x3f37ca25	0.71792823
186	0x3f7a6b23	0.9781973
187	0x3f83582a	1.026128
188	0x3f66bcfa	0.90132105
189	0x3f7c08ba	0.98450816
190	0x3fa08827	1.254155
191	0x3f8c1c99	1.0946227
192	0x3f766bd2	0.9625827
193	0x3f836861	1.0266229
194	0x3f4c9390	0.7991266
195	0x3f9e17ba	1.2350991
196	0x3f81a05f	1.0127066
197	0x3f5e1883	0.8675615
198	0x3f4ee026	0.80810773
199	0x3f549f10	0.8305521
200	0x3f8ac60a	1.0841687
201	0x3f6a11be	0.9143332
202	0x3f5c305c	0.8601129
203	0x3f8e9246	1.1138389
204	0x3f9c6ed0	1.2221317
205	0x3f821d3b	1.016517
206	0x3f83c4dd	1.0294453
207	0x3f6b7068	0.91968393
208	0x3f81d0df	1.0141867
209	0x3f65014b	0.894551
210	0x3f8cd3af	1.1002101
211	0x3f60c335	0.8779786
212	0x3f971e91	1.1806203
213	0x3f8c1099	1.0942565
214	0x3f918a4e	1.1370332
215	0x3f61f093	0.8825771
216	0x3f601e32	0.87546074
217	0x3f887332	1.0660155
218	0x3f79a7be	0.9752158
219	0x3f71facf	0.9452333
220	0x3f8f5bb8	1.1199865
221	0x3f58649c	0.8452852
222	0x3f752e48	0.95773745
223	0x3f7bec6a	0.98407614
224	0x3f93661f	1.151554
225	0x3fa90dd1	1.3207341
226	0x3f9338c0	1.1501694
227	0x3f939ef9	1.153289
228	0x3f49a200	0.7876282
229	0x3f51248c	0.8169639
230	0x3f659781	0.896843
231	0x3f908cd8	1.1292982
232	0x3f85c1ca	1.0449765
233	0x3f62be73	0.8857185
234	0x3f6bcf40	0.92113113
235	0x3f5d7439	0.86505467
236	0x3f89aa2d	1.0755059
237	0x3f814f95	1.0102412
238	0x3f9799b0	1.1843777
239	0x3f8e3131	1.1108762
240	0x3f8cbdb9	1.0995399
241	0x3f96ca31	1.1780454
242	0x3f97fda7	1.1874284
243	0x3f56a18d	0.83840257
244	0x3f5f7a39	0.8729587
245	0x3f388822	0.7208272
246	0x3f8c1970	1.0945263
247	0x3f83cda5	1.0297133
248	0x3f6579b2	0.8963882
249	0x3fa205a4	1.2657971
250	0x3fa02f99	1.2514526
251	0x3f81d760	1.0143852
252	0x3f7ca792	0.9869319
253	0x3f81ae8c	1.0131392
254	0x3f7e8063	0.9941465
255	0x3f6266e8	0.8843827

bn1.bias f4 [512]
0	0x3f346d64	0.70479417
1	0x3e6732bf	0.22577952
2	0x3ece3fa3	0.40282926
3	0x3ebfd0c9	0.37463978
4	0x3f42a5e7	0.76034397
5	0xbeaba730	-0.3352599
6	0xbe98c1b4	-0.29835284
7	0x3e252fcb	0.16131513
8	0x3ed5b7a3	0.41741666
9	0xbdc70db8	-0.097194135
10	0xbedba2b8	-0.42897582
11	0x3dcdae53	0.10043015
12	0x3cf11815	0.029430429
13	0x3ea7c79e	0.32769483
14	0xbebeef0a	-0.37291747
15	0x3db15797	0.086592846
16	0xbe3f98df	-0.1871066
17	0xbc6d33f0	-0.014477715
18	0x3e12e470	0.14344954
19	0x3edef24f	0.43544242
20	0xbdb69dd9	-0.08916826
21	0x3f48183f	0.78161997
22	0xbdc17e33	-0.09447899
23	0x3ec9f92c	0.39447916
24	0x3e827a2e	0.2548384
25	0x3e20510a	0.15655914
26	0xbead9a6d	-0.3390688
27	0x3d7bb053	0.061447453
28	0x3e5fa5ab	0.21840541
29	0x3eef0c6d	0.46689168
30	0x3e9cf2b1	0.3065391
31	0x3e0c1d8c	0.13683146
32	0xbd368c4a	-0.044567384
33	0x3d1eff6b	0.038817804
34	0x3e42244f	0.18959163
35	0xbd74b943	-0.05974699
36	0x3c4a3bd8	0.012343369
37	0xbefb68b2	-0.49103314
38	0xbc89508b	-0.016762039
39	0xbefc7839	-0.49310473
40	0xbd320c5c	-0.043468818
41	0x3e449f0d	0.19201298
42	0x3dd18b1e	0.102316126
43	0x3ee484bf	0.44632527
44	0xbe272a50	-0.16324735
45	0x3d8ddb88	0.06926638
46	0x3d96a2c2	0.07355262
47	0xbe171dfa	-0.14757529
48	0xbec8c0bd	-0.39209548
49	0xbeab6989	-0.33478954
50	0x3d9e7d7e	0.077387795
51	0x3e6836fe	0.22677228
52	0xbec044c4	-0.37552464
53	0xbe7480e8	-0.23877299
54	0xbd5fadee	-0.05460923
55	0x3e89dca6	0.26926154
56	0xbe3da1ab	-0.18518703
57	0xbd899f7f	-0.067198746
58	0x3dcbcdce	0.099513635
59	0xbe19b001	-0.15008546
60	0xbefd5022	-0.494752
61	0x3ea443a0	0.32082844
62	0x3eb54f0a	0.35411865
63	0x3f32c22f	0.6982755
64	0xbe848c8f	-0.25888488
65	0x3e290326	0.16505107
66	0x3ebc9977	0.36835834
67	0xbe837998	-0.25678706
68	0x3e9ca393	0.30593547
69	0xbe399509	-0.18123259
70	0x3ebcf0c1	0.3690243
71	0x3e9d50c8	0.30725694
72	0xbf1f5206	-0.6223453
73	0x3e9013df	0.2814016
74	0x3ea2625e	0.31715673
75	0x3e03ed4c	0.1288349
76	0x3ddefcdb	0.10888072
77	0xbf26071b	-0.6485459
78	0xbd7ab6e5	-0.061209578
79	0xbed0ce2f	-0.40782306
80	0xbe59632b	-0.21229236
81	0x3e276642	0.16347602
82	0x3dea5157	0.114412956
83	0x3f09aef9	0.5378261
84	0x3e672266	0.22571716
85	0x3daad314	0.08341041
86	0xbd0ad56c	-0.03389494
87	0x3e9122a0	0.2834673
88	0xbe2e0ef9	-0.16997899
89	0xbe8c88a3	-0.27447996
90	0x3ed262c4	0.41090977
91	0x3ea75cc8	0.32687974
92	0x3e199777	0.14999186
93	0xbd00e6cd	-0.03147011
94	0x3e67996a	0.22617117
95	0xbef5d8dd	-0.48017016
96	0x3d49e27b	0.049288254
97	0xbe633e6e	-0.22191784
98	0x3e224d8e	0.15849897
99	0xbe9e11e6	-0.3087303
100	0x3ea8e4ef	0.32987162
101	0x3ec092d8	0.37612033
102	0x3e8aa506	0.27079028
103	0xbdec2cc9	-0.115319796
104	0xbec279eb	-0.3798364
105	0xbccc64c0	-0.024950385
106	0xbd7a9a2d	-0.06118219
107	0xbf0e5eb2	-0.55613244
108	0xbe4da524	-0.20082527
109	0x3ebbef72	0.3670612
110	0x3e0a59ed	0.13510866
111	0x3efa9663	0.4894286
112	0xbeee05da	-0.4648884
113	0xbe6e7210	-0.23285699
114	0xbcbe646e	-0.023241248
115	0x3c9afb20	0.018918574
116	0xbe2d80bb	-0.16943638
117	0xbccbe389	-0.02488877
118	0x3e9ef700	0.3104782
119	0xbf0394e2	-0.5139905
120	0xbee3f938	-0.44526076
121	0x3e9b5920	0.30341434
122	0x3ef75184	0.4830438
123	0xbccde293	-0.025132453
124	0xbef21b40	-0.47286415
125	0x3dbe6484	0.092965156
126	0xbe9378a9	-0.28802994
127	0xbe01e954	-0.12686664
128	0x3f15b5c1	0.5848046
129	0xbe949099	-0.2901657
130	0xbe76e404	-0.24110419
131	0xbe8fe4ed	-0.28104344
132	0xbebfc6e6	-0.37456435
133	0x3edb610e	0.42847484
134	0x3f01eb1b	0.5074937
135	0x3f1a32c3	0.60233706
136	0x3eb74359	0.3579357
137	0xbcc1d7b2	-0.023662422
138	0x3d7288a5	0.059212346
139	0xbe911ea6	-0.28343695
140	0x3eb51b84	0.35372555
141	0x3dd37572	0.10325135
142	0xbe21ced7	-0.1580156
143	0x3d68c96c	0.056832716
144	0xbcedc8c6	-0.0290264
145	0x3ec36e6e	0.3817019
146	0x3edacc2a	0.4273389
147	0xbc8cc1ed	-0.017182315
148	0xbe659386	-0.22419557
149	0x3e16e2e9	0.14734997
150	0x3eba291d	0.36359492
151	0xbf1f6d75	-0.62276393
152	0x3d992658	0.074780166
153	0xbe6bc61e	-0.23024794
154	0x3ed5fcfa	0.41794568
155	0xbd724118	-0.05914411
156	0xbe69467f	-0.22780798
157	0x3f01ec17	0.5075087
158	0x3eb549ee	0.35407966
159	0x3e44a12a	0.19202104
160	0xbe7da906	-0.24771509
161	0xbe870d60	-0.26377392
162	0x3f0c8297	0.54886764
163	0x3d8df7ca	0.06932028
164	0x3eba247f	0.3635597
165	0xbdc074af	-0.09397256
166	0x3e8e2280	0.27760696
167	0x3ec906a5	0.39262882
168	0x3e1ddc62	0.154161
169	0x3d2c3043	0.042038213
170	0xbf362d1d	-0.7116259
171	0x3deaabfe	0.11458586
172	0xbe196470	-0.1497972
173	0xbeebf669	-0.46086434
174	0xbe431625	-0.19051416
175	0xbee72f10	-0.45153093
176	0xbe9a4559	-0.30131033
177	0x3e735886	0.23764238
178	0x3e7b0633	0.24514084
179	0xbefef380	-0.4979515
180	0xbef3f3c3	-0.47646913
181	0x3d5389a7	0.051644947
182	0xbe4c1f5f	-0.19933842
183	0x3ead23ff	0.33816525
184	0xbec6a162	-0.38795
185	0x3ecd6c5a	0.40121728
186	0xbe18f09c	-0.14935535
187	0xbdcc3653	-0.09971299
188	0x3db86a69	0.09004671
189	0x3ebca410	0.3684392
190	0x3ed92e5d	0.42418185
191	0x3dd84e0b	0.105617605
192	0xbf02c52c	-0.5108211
193	0x3e708ca0	0.23491144
194	0x3e43bcb7	0.19114958
195	0xbe8adaf5	-0.27120176
196	0xbf012882	-0.50452435
197	0x3dcd5c51	0.100273736
198	0xbcef35e9	-0.029200511
199	0x3c979279	0.01850246
200	0x3e03cf52	0.12872055
201	0xbe7126b4	-0.2354992
202	0x3e997338	0.29970717
203	0x3e9f0623	0.3105937
204	0x3d333969	0.043755922
205	0x3e11bb68	0.14231646
206	0xbdb70064	-0.089356214
207	0x3df7b8b7	0.120957784
208	0x3e263940	0.16232777
209	0xbefc0873	-0.49225196
210	0xbe00f400	-0.12593079
211	0x3d75f973	0.060052346
212	0xbec7bcc7	-0.39011213
213	0x3e7e4af7	0.24833284
214	0xbe2d6227	-0.16931973
215	0x3e67f5de	0.22652385
216	0xbdf75b20	-0.120779276
217	0x3db590ee	0.08865534
218	0xbe1df400	-0.1542511
219	0x3de7344f	0.11289274
220	0xbe245d49	-0.1605121
221	0x3e496c13	0.19670133
222	0xbe0dbfd2	-0.13842705
223	0xbe038ff8	-0.12847888
224	0x3e930d6d	0.2872118
225	0x3ea951cf	0.33070228
226	0x3ec38c64	0.38193047
227	0x3e2152da	0.15754262
228	0xbe70a814	-0.23501617
229	0xbef9a928	-0.48761868
230	0xbeaba92c	-0.33527505
231	0x3eb8619d	0.36011973
232	0xbe9af499	-0.30264738
233	0xbed4c84a	-0.41559058
234	0x3e55afcd	0.20867844
235	0x3da952fd	0.08267782
236	0x3e16764c	0.14693564
237	0x3ea90c1d	0.33017054
238	0xbe256ec5	-0.16155536
239	0xbf0c1c6a	-0.54730856
240	0xbeb071f2	-0.34461933
241	0x3f02d8f5	0.511123
242	0xbdfaa723	-0.1223891
243	0xbeb5a354	-0.35476172
244	0x3e4a0818	0.1972965
245	0xbeeaa0d8	-0.4582584
246	0xbe8f91a3	-0.280408
247	0xbd243fdc	-0.040099964
248	0xbe38410a	-0.1799356
249	0x3d5eafe7	0.054366972
250	0x3ebbb2cd	0.36659852
251	0xbdcdaac2	-0.10042335
252	0xbe590a7a	-0.21195403
253	0xbf26af1d	-0.6511095
254	0x3e5b7855	0.21432622
255	0xbddb39f5	-0.10704414
